application/AnomalyDetection/server/models/anomaly_detection.tflite (tflite, 9084 bytes, 6 tensors)

sequential/dense/BiasAdd/ReadVariableOp/resource f4 [32]
000000 0f fd 92 bd 37 9e 6f 3e 5f b7 18 bd 8b e3 ab be
       -0.07177173 0.23400198 -0.03728425 -0.3357204
000010 28 a9 06 bf 0b 8f 89 be 1e 8f 31 bf 82 23 0d be
       -0.5260186 -0.26866946 -0.69359004 -0.13783076
000020 b1 33 54 be f4 29 08 bf 98 23 9e 3a fb 39 e3 3d
       -0.20722844 -0.53189015 0.0012065051 0.11095043
000030 0b 09 46 be 68 3c b1 be 07 53 b9 bd 08 75 91 bd
       -0.19339387 -0.346164 -0.09049039 -0.071024
000040 ac ba 3a 3e 66 c9 12 3f 65 14 2f 3f 47 21 80 bc
       0.18235272 0.5733856 0.68390495 -0.015640868
000050 0c 65 6a 3e d9 18 2d bd c6 33 e0 3e 28 e9 33 3f
       0.22890109 -0.042260025 0.437895 0.70277643
000060 6b c6 64 be 47 f7 03 bf cd e6 08 3e 4e 95 4e be
       -0.22341315 -0.5154919 0.13369294 -0.20174143
000070 fd 31 05 be 59 17 55 3c 74 a6 22 bc 86 52 e7 be
       -0.1300735 0.013006055 -0.009927381 -0.45180148

sequential/dense_1/BiasAdd/ReadVariableOp/resource f4 [16]
000000 81 cb 76 3c 76 0d 1d be 87 00 e8 bc 83 8f 85 3c
       0.015063168 -0.15337166 -0.028320564 0.016303783
000010 5f 67 95 bc 34 aa 18 ba 37 eb 51 bc 54 ee c6 bd
       -0.018237768 -0.0005823702 -0.012812427 -0.09713426
000020 c2 55 f4 bc c0 c7 c5 3c a4 6c 81 bd 17 39 a1 3d
       -0.029826049 0.0241431 -0.0631955 0.07872217
000030 71 9d 90 3c cb 20 a3 3c df 4e f4 3d 8e 10 8c 3d
       0.017653199 0.019913098 0.11929106 0.06839095

sequential/dense_2/BiasAdd/ReadVariableOp/resource f4 [2]
000000 ad 3e 64 be a9 3e 64 3e
       -0.22289534 0.22289528

sequential/dense/MatMul f4 [32, 38]
000000 ce 24 da bd 66 81 86 bd 35 c6 25 bb 26 2e 3e bd
       -0.10651551 -0.065676495 -0.0025295143 -0.04643073
000010 f6 25 f9 be ff 0f 13 3d f4 05 b3 3d a5 45 4d 3f
       -0.48661774 0.035903927 0.0874137 0.80184394
000020 a7 57 9f bd f8 04 07 bf 47 e6 03 bf 49 81 32 3e
       -0.0778039 -0.52741957 -0.5152325 0.17432131
000030 3e 45 1c be a2 af b4 be 25 e6 3c be 65 e6 0c be
       -0.15260789 -0.35290247 -0.18447168 -0.13759764
000040 d7 a0 ca be b6 d2 8c be 49 dc 44 3e d6 45 18 bb
       -0.39575836 -0.2750451 0.19224657 -0.0023234985
000050 fd 4c 13 bd 9c 1e 11 3e b7 c1 77 bd 5a 98 1b bf
       -0.035962094 0.14171833 -0.060487475 -0.60779345
000060 5a 01 b1 3d 38 68 18 bd 04 61 55 bb ef 51 36 be
       0.08642836 -0.037208766 -0.0032559047 -0.17804693
000070 d6 85 09 be c6 d7 65 3e a3 34 59 be 71 6f ca 3e
       -0.1342996 0.22445592 -0.21211486 0.39538148
000080 fe 32 c1 3d 70 2f 61 3e 1d 6f dd bd 7e 69 8f be
       0.09433554 0.21990752 -0.10812209 -0.28010172
000090 a8 ff 31 be 07 95 83 3e cf 17 a8 3e 1b c2 64 3f
       -0.17382681 0.25699636 0.32830665 0.8935868
0000a0 ec 20 56 bd 6a f1 2c 3f 09 16 25 bf b7 c3 bf be
       -0.05227749 0.6755587 -0.6448675 -0.37454006
0000b0 89 b5 9a 3f 9e af 9c 3f ab 4a 65 be 94 99 6b bf
       1.208665 1.2241094 -0.22391765 -0.92031217
0000c0 4c 71 5c 3f c4 20 cb bd 86 4c 0a bf 62 98 51 bc
       0.8611038 -0.09918359 -0.54023015 -0.012792679
0000d0 ae 4e a7 3e e1 4d 27 3f ad 57 27 be 1d 0b 55 3e
       0.32677215 0.6535321 -0.1634204 0.2080502
0000e0 94 d6 01 3d ff 59 ab 3d 12 e0 b0 3e 38 ad 81 3e
       0.03169878 0.08366775 0.34545952 0.25327468
0000f0 c4 44 d2 3d 39 b3 d2 3e 53 fe 4b 3e c0 66 dc be
       0.10267022 0.4115236 0.19921236 -0.43047142
000100 42 44 93 3d e5 d6 30 be ac c1 3d bf 6f d9 5b be
       0.071907535 -0.17269476 -0.74123645 -0.21469663
000110 4d 96 47 be c1 3d 75 3f 93 4f 31 3f 63 08 d5 3d
       -0.19490929 0.95797354 0.69262046 0.1040199
000120 d8 48 00 be 13 a0 2b bf de 6d 4f 3e ed df ee 3d
       -0.12527788 -0.6704113 0.20256755 0.11663804
000130 83 43 c1 be 2f 2e 5e bd ea 56 e1 3e 36 60 f1 3d
       -0.3774682 -0.054243263 0.44011623 0.11785929
000140 15 57 5d 3f 8d eb 13 3e 3c 8c 56 3f 4e 2c 20 bf
       0.86461 0.14445324 0.8380773 -0.62567604
000150 34 63 c4 3d 7b 0b 32 3f 8c 6f 53 be 42 94 1c 3f
       0.09589234 0.6954877 -0.2064802 0.61163723
000160 85 9e 17 3e 9c 47 e7 3d c4 15 ee be be 32 94 bc
       0.14806564 0.11292955 -0.4650098 -0.018090602
000170 4d 20 00 3f 68 84 f9 bd 89 8a 76 bd 7d 83 5d be
       0.5004929 -0.121834576 -0.06019071 -0.2163219
000180 08 e4 cb 3d 6c 8b b0 3d d6 33 82 3d 73 f8 cd 3e
       0.09955603 0.086203426 0.06357543 0.40228614
000190 2c e8 fd bd e9 29 7f bf ac e0 0e 3e e7 f9 7a be
       -0.12397799 -0.99673325 0.13952893 -0.24509393
0001a0 25 ae 85 3e 78 fe d3 3e 12 ab 78 3e 7e 3b dc be
       0.26109424 0.41405082 0.24284008 -0.4301414
0001b0 48 b4 17 3f e2 d1 0a be 79 a6 58 3e 92 b1 3d bf
       0.5925946 -0.13556626 0.21157254 -0.74099076
0001c0 80 18 4d 3d 17 4a 2c bf 2f 09 82 3d da f9 13 3f
       0.050072193 -0.6730055 0.06349408 0.5780312
0001d0 e3 d6 21 bd 3a 76 dc 3e de b0 0a bf ad 2c 17 be
       -0.039511573 0.4305895 -0.5417613 -0.14763136
0001e0 61 51 4e 3e be 66 79 3f 8c 04 f7 bd 57 e3 23 bf
       0.20148231 0.974224 -0.12061414 -0.6401877
0001f0 51 23 df 3e ba 2f e0 3c d8 67 74 bc 38 a1 a7 be
       0.43581632 0.027366508 -0.014917336 -0.32740188
000200 64 10 fb 3a 18 72 cc bc 6a ed b9 be 03 19 b8 3d
       0.0019154665 -0.024956748 -0.36313945 0.089891456
000210 e4 dc fb bd b5 e0 4c 3e 0f bb e0 3c 87 c0 35 3d
       -0.12297991 0.20007594 0.027432946 0.04437306
000220 56 bd 1c 3e b5 e9 d9 3e 8d c8 33 3f f0 de 17 3e
       0.15306601 0.42561117 0.7022789 0.14831138
000230 e1 d2 05 be 4f 92 72 bc 29 e2 62 be c7 b9 fa 3e
       -0.13068725 -0.0148053905 -0.22156586 0.48969862
000240 74 73 17 3f cc d3 6b 3f f0 fe a3 bf fd 6e b6 bd
       0.5916054 0.9212005 -1.2812176 -0.08907888
000250 4e 27 dc be a0 9e e1 be be 58 c0 bd d4 2f 6b 3e
       -0.42998737 -0.44066334 -0.09391926 0.22967464
000260 20 54 d7 3e 92 13 26 3f 76 85 74 3c e4 34 d9 3e
       0.4205637 0.6487361 0.014924398 0.42423165
000270 c1 4f c4 be a3 ee 9a 3e a9 28 f7 bd 2c 68 ff 3e
       -0.38342097 0.3026019 -0.12068302 0.49884164
000280 0b 38 98 3d b5 93 58 3c d9 ab 22 3f d2 1c fb 3d
       0.07432564 0.01321881 0.6354347 0.122613564
000290 70 00 a7 3e ce 3e e9 bd 15 e5 fc bd b0 7b d7 3e
       0.3261752 -0.11388932 -0.123483814 0.42086554
0002a0 4f ad 61 be 52 84 0b 3d 7a 6c 79 3d 27 cf db 3d
       -0.22038768 0.034061737 0.060894467 0.107328705
0002b0 26 64 61 bb 44 3d a4 bd 2a 78 52 bd dd 82 4e 3e
       -0.0034391969 -0.08019498 -0.05138413 0.20167108
0002c0 e6 83 82 3f 68 f4 3b 3e a8 01 93 3d b2 e0 ae bd
       1.0196502 0.18354952 0.0717805 -0.08538951
0002d0 d1 32 ba be 89 36 73 3e 04 90 98 3e a7 11 83 3f
       -0.36366895 0.23751272 0.29797375 1.0239762
0002e0 ad c8 0d c0 fc 22 f1 bc ac f4 f0 bd e1 61 ab be
       -2.2153733 -0.029435627 -0.117654175 -0.33473113
0002f0 36 8e a4 bc c1 05 fe bd 0b 42 33 be 36 84 99 be
       -0.020087343 -0.12403441 -0.17505662 -0.2998368
000300 91 7b 73 3e 18 22 a8 3e 1f 9a 8e 3d 1f 6e a7 3e
       0.23777606 0.3283851 0.0696299 0.32701203
000310 50 ea 26 3f dd 22 c4 3e 12 f9 9d be f2 75 c2 be
       0.6520128 0.3830785 -0.30854088 -0.3798061
000320 95 5e ae be 37 8d b0 bd 99 1b e9 3c d3 4f da 3d
       -0.34056535 -0.086206846 0.028455542 0.106597565
000330 98 12 9a 3e e8 ff 0e 3e de 63 ab be 6a a0 5e be
       0.3009231 0.13964808 -0.3347463 -0.2174088
000340 8d 44 cf 3c ff 69 f1 be 98 58 61 bf a0 53 b8 bf
       0.025301242 -0.4715118 -0.8802581 -1.440052
000350 e9 9d c0 be d0 69 aa be 4e 4e 35 3e 78 8d 8c 3e
       -0.37620476 -0.33283854 0.17705652 0.27451682
000360 e4 f2 8f bc c5 99 81 3e ec c0 a7 3f 3e b2 1d be
       -0.017571874 0.2531263 1.310575 -0.15400025
000370 0b f3 94 3e 88 25 11 3f d4 3b 1e 3e c2 6a 5a 3d
       0.29091677 0.56697893 0.1545251 0.05332447
000380 de 6f 9e bd 01 ae 7d 3d 2e 58 15 be ba 47 af 3c
       -0.07736181 0.06193352 -0.14584419 0.021396507
000390 92 37 e4 bd fb 33 f9 3e b9 23 1c bd b4 2e a1 3e
       -0.11143412 0.4867247 -0.038120005 0.31480944
0003a0 83 1e fe be c3 72 11 3e 3d 62 35 be 61 01 45 3f
       -0.49632654 0.14203934 -0.17713256 0.7695523
0003b0 4c 08 63 3e 99 a0 30 be f4 c6 ba 3e 70 cd 97 bc
       0.22171134 -0.17248763 0.36479914 -0.018530577
0003c0 80 23 e1 3d 7d df 2c bf 47 68 e3 be 9d 78 b1 3e
       0.10993099 -0.67528516 -0.44415495 0.34662333
0003d0 df 5b ab be ec 14 10 3e 9b dd 92 3e 9b b5 db 3c
       -0.3346853 0.14070481 0.28684697 0.026819995
0003e0 4e 9f ec be 1e ae 30 bf 5d 29 4c 3d be a4 99 be
       -0.4621529 -0.6901568 0.049844135 -0.300085
0003f0 09 9a 02 3e 1d e8 d5 bd e5 2c 21 3e b3 92 1f 3f
       0.12754072 -0.10444663 0.15739782 0.6233322

sequential/dense_1/MatMul f4 [16, 32]
000000 53 e1 b0 3e 29 0d 47 3f 71 99 02 bf 6e 4f 2e 3f
       0.3454691 0.77754456 -0.51015383 0.6808995
000010 fe 3a 4b 3f 68 ac f7 3e 38 9c 61 3d fd 48 09 3f
       0.7938689 0.48373723 0.055080622 0.53626996
000020 29 31 83 3e 02 94 37 3f f8 a5 56 bf 72 b6 cb be
       0.25623444 0.71710217 -0.83847 -0.39787632
000030 c9 c6 91 3e 2c 90 6f 3f 24 02 39 bf c0 b6 73 3e
       0.28471974 0.93579364 -0.7226889 0.23800182
000040 e0 c1 8f be b0 e4 c8 be 88 55 1a bf cc 2c f0 3e
       -0.28077602 -0.39236975 -0.6028676 0.46909177
000050 c7 8f 9f 3b 25 a2 b6 3e 3d d7 7e bf e3 4f d7 be
       0.0048694345 0.3567058 -0.9954718 -0.42053136
000060 20 3f 9b 3e 23 15 13 3f 04 bb 1c bf 1c 08 03 bf
       0.30321598 0.5745413 -0.61222863 -0.5118425
000070 ea f2 07 3e fa 88 59 bc 40 47 e6 be f4 fe e8 3d
       0.13276258 -0.013277287 -0.44976234 0.113767534
000080 10 70 64 3e 76 82 fd 3e 5d 3a 19 bf 18 92 40 3f
       0.22308373 0.49513596 -0.5985468 0.7522292
000090 a9 cd 42 3f a5 19 fa 3e 66 9b 69 3e 35 e8 ed 3e
       0.7609506 0.4884769 0.22813186 0.46466222
0000a0 1f e8 0c 3f 13 11 25 3f 29 86 a3 be fa a2 5c be
       0.5504169 0.6447918 -0.31938294 -0.21546546
0000b0 cd ba 19 3f ad f4 27 3f d6 dc ce be 85 ec 28 3e
       0.6005066 0.6560772 -0.4040286 0.16496475
0000c0 7c 47 1a bf 08 2a 3c bf af 75 95 bf f4 37 c6 3e
       -0.60265326 -0.73501635 -1.1676539 0.38714564
0000d0 6e b1 21 bf 82 6c ec 3e 4d 24 f5 be 1f 70 07 bf
       -0.6316136 0.46176535 -0.47879258 -0.5290546
0000e0 f9 57 3f 3e 4e 22 0b 3f c8 cf 3f bf 94 e1 19 bf
       0.18685903 0.5434922 -0.74926424 -0.6010983
0000f0 55 8e ca be 29 6c 53 3d 3d a1 88 be e5 ec e1 3e
       -0.39561716 0.05161682 -0.26685515 0.4412605
000100 e9 2a c1 be 5c 08 ed be a2 09 c2 3e 60 5d bf be
       -0.3772805 -0.4629544 0.37897974 -0.37375927
000110 03 4c 48 bf 4a 69 c3 be c2 3d 69 be e2 0e 36 bf
       -0.78240985 -0.38166267 -0.22777465 -0.7111646
000120 05 90 a0 be 68 8a 4f be 2a f8 c8 3e 7b 76 96 3e
       -0.31359878 -0.20267642 0.39251834 0.29387268
000130 4e 19 e9 be 56 e9 e1 be 06 74 a7 3e cd a1 f8 bd
       -0.45527118 -0.44123334 0.32705706 -0.12140236
000140 26 f5 fe 3e d5 3a b0 3e c3 d8 e0 3e 85 b2 a6 be
       0.49796408 0.34419885 0.43915376 -0.32558075
000150 a8 02 ec 3e 0a 90 16 be 22 a4 65 3f 6e 05 21 3f
       0.46095777 -0.14703384 0.8970357 0.6289891
000160 9e a7 d0 be b3 53 40 bf 2f 11 60 3e 0d cb 3d 3f
       -0.40752882 -0.75127715 0.21881555 0.74137956
000170 a2 45 07 be f2 26 e1 bd da 81 b0 3d 8d 8c c0 be
       -0.13210157 -0.10993756 0.08618517 -0.37607232
000180 5b 9d 24 bd 47 23 1d bf 69 5b 07 3f 45 27 66 be
       -0.04018913 -0.61381954 0.52873856 -0.22475918
000190 fa d8 d7 bd 8d b1 31 be 3b c9 17 be 4e e6 7a bd
       -0.10539432 -0.17352886 -0.14822857 -0.061254792
0001a0 29 de f0 be f2 5b 2c bf 74 e8 86 3e 2a 34 0a be
       -0.47044495 -0.673278 0.26349223 -0.13496462
0001b0 9b 75 c8 be 29 fe 7b bf 18 da e2 3e a5 d4 2b bd
       -0.39152226 -0.9843469 0.44307017 -0.04195084
0001c0 d5 97 92 3e d9 59 47 3e 2c 85 80 3f ac 92 1a bf
       0.28631464 0.19467868 1.0040641 -0.60380054
0001d0 89 97 ad 3e 61 22 2b bf 17 57 51 3f 2d 32 a8 3e
       0.33904675 -0.66849333 0.81773514 0.3285078
0001e0 0f 18 26 bf 2a dd 51 bf c3 95 db 3e 38 cc b3 3e
       -0.6488046 -0.81978095 0.42887697 0.35116744
0001f0 83 2e c5 3e 43 ae 50 3d f9 93 e8 3e ca 51 eb be
       0.38512048 0.05094744 0.45425394 -0.45960838
000200 10 e2 b4 bc 9b 12 b4 3e b0 aa d8 3c 2d 84 85 3e
       -0.022080451 0.35170445 0.026448578 0.26077405
000210 11 03 1b 3f 02 61 9d 3e 6f 5b 8c bd c3 f7 06 3f
       0.60551554 0.30738074 -0.06853377 0.52721804
000220 91 a6 fd 3e 5e e9 27 3f b1 61 f3 be ce ff b2 be
       0.49541143 0.65590465 -0.4753547 -0.34960788
000230 11 51 f3 3e df cf 3c 3f b1 b4 35 bf 1a 6f 0d 3f
       0.47522786 0.73754686 -0.7097884 0.5524765
000240 9e c0 20 be f7 15 25 bf 8e 36 0f bf f0 96 7d 3c
       -0.15698478 -0.6448664 -0.5594262 0.015477881
000250 15 1e b5 bb c4 11 af 3e a2 56 62 bf 09 30 e1 be
       -0.0055272677 0.34193242 -0.8841344 -0.4398196
000260 27 1b 48 3e 96 61 68 3f c8 70 b3 be 65 9d 9c be
       0.19541608 0.90773904 -0.35046983 -0.30588832
000270 84 21 cb be 1c 5b 74 3e 26 a6 e3 be 69 f5 94 3e
       -0.39674008 0.2386288 -0.444627 0.29093483
000280 41 b4 a1 3d e8 e9 ac 3e 00 8d 3b be 86 c2 b7 3e
       0.07895709 0.33772206 -0.18315506 0.35890597
000290 47 1f c3 3e 5b be 84 3e db b1 d1 3e b0 bc 24 3f
       0.381098 0.2592648 0.40956005 0.64350414
0002a0 0d e7 0d 3f 90 54 fb 3e 77 d7 0d bf dc 7e 74 be
       0.5543068 0.49087954 -0.554069 -0.23876518
0002b0 f2 74 50 3e b0 a8 72 3f 0b 51 42 bf 8b d5 2f 3f
       0.20357111 0.94788647 -0.7590491 0.68685216
0002c0 48 01 06 bf d7 ee f3 be 29 45 11 bf 93 30 98 3e
       -0.52345705 -0.47643158 -0.56746155 0.2972456
0002d0 52 05 96 be 69 69 10 3f a6 1d 80 bf 6e ef e2 be
       -0.29300934 0.56410843 -1.0009048 -0.44323295
0002e0 71 e6 07 3e 69 5e 4b 3f a2 bc e5 be be 8b 1d bf
       0.132715 0.79440933 -0.44870478 -0.61541355
0002f0 cf bd 82 be 81 28 a1 3e d1 5f a8 be ee f8 05 3f
       -0.25535437 0.31476215 -0.32885602 0.5233296
000300 dd 73 48 be 45 1f 4a bf 0f db 15 3f 94 d8 0c bf
       -0.19575448 -0.78953964 0.5853738 -0.5501797
000310 0b 9f 48 bf 1e c5 e3 be 59 bf e8 be 50 78 70 be
       -0.7836768 -0.44486326 -0.45458487 -0.23483396
000320 d8 af 7c 3d 50 bc c4 be ff a2 05 3f 33 6e e6 3e
       0.061691135 -0.3842492 0.5220184 0.4500595
000330 3b 02 9e bd 11 59 61 bf 0e c2 0f 3f 3c ad 44 be
       -0.07715269 -0.8802653 0.5615548 -0.19206709
000340 ae 99 76 3e 7c 7c 28 3f dd 0e 12 3f 6d 27 08 bf
       0.24082062 0.6581495 0.5705393 -0.5318516
000350 17 43 81 3e 26 fd 2b bf 66 3a 40 3f 32 9d 1a 3f
       0.25246498 -0.6718315 0.7508911 0.6039611
000360 67 e9 e1 be ff 97 26 bf 9f 4f 42 3e 7e ed 43 3e
       -0.44123384 -0.6507568 0.18975686 0.19133565
000370 33 a6 83 3e 5b fb 9a be 17 f3 eb 3e 4a c4 42 bd
       0.25712737 -0.30269894 0.460839 -0.047550477
000380 2d 60 13 3d 07 46 4c 3e 64 31 95 be 5e 9c 0b 3f
       0.035980392 0.19948588 -0.29139245 0.5453547
000390 14 f5 08 3f 17 6c 01 3f e3 81 f9 bd 9a c5 36 3e
       0.5349896 0.50555557 -0.12182977 0.17848817
0003a0 f2 c7 f3 3e 21 85 2b 3f 53 79 4c bf 77 36 cd be
       0.47613484 0.67000014 -0.79872626 -0.40080616
0003b0 d7 1e d9 3e fd b9 e8 3e 02 47 91 be 71 cb cb 3e
       0.4240634 0.45454398 -0.28374487 0.3980365
0003c0 68 ce b3 be d6 7b fc be db 18 63 bf 3b db eb 3e
       -0.35118413 -0.4931323 -0.887098 0.46065697
0003d0 b7 06 8c bd 58 94 ea 3e 17 d2 34 bf c3 cc 02 bf
       -0.06837218 0.45816302 -0.7063307 -0.5109369
0003e0 80 a7 e8 3e 41 71 00 3f dd e8 14 bf 7a c3 04 bf
       0.45440292 0.5017281 -0.5816782 -0.51860774
0003f0 81 07 8e be 75 eb c1 3e 49 b0 0c be 83 6b 17 3f
       -0.277401 0.37874952 -0.13739122 0.59148425

sequential/dense_2/MatMul f4 [2, 16]
000000 7a 29 23 bf 31 e1 57 bf 8d 1c 31 3f bf 93 8f 3f
       -0.63735163 -0.8432799 0.6918419 1.1216964
000010 b9 2e 92 bf 41 ef 27 bf 75 c4 87 3f 86 10 a8 bf
       -1.1420509 -0.6559945 1.0606829 -1.3130043
000020 e2 3f 99 bf 32 cf ef 3e e6 40 bb bf 75 65 11 3f
       -1.197262 0.46837765 -1.462918 0.56795436
000030 4b c3 0d 3f cb 6a 84 3f 7a 51 40 3f ae ed 8d 3f
       0.5537612 1.0345091 0.75124323 1.1088159
000040 6d a7 cb 3f a0 79 8a 3f ba 12 39 bf 51 5a 1f bf
       1.5910469 1.0818367 -0.722942 -0.62247187
000050 4f 73 8b 3f 3b 43 ba 3f 1d bf 66 bf 14 e5 98 3f
       1.0894564 1.4551767 -0.90135366 1.1944909
000060 1b d5 20 3f 53 bc 22 bf 51 26 39 3f df dd 6d bf
       0.62825173 -0.6356861 0.7232409 -0.92916673
000070 6b cf 27 bf 54 54 2f bf 0f 01 43 bf 50 fc 1f bf
       -0.6555087 -0.6848805 -0.7617349 -0.62494373
